…
anConv2d', 'latent_features': 32, 'weightnorm': True}, {'block': 'GaussianConv2d', 'latent_features': 16, 'weightnorm': True}, {'block': 'GaussianConv2d', 'latent_features': 8, 'weightnorm': True}, {'block': 'GaussianDense', 'latent_features': 4, 'weightnorm': True}], 'q_dropout': 0.0, 'p_dropout': 0.0, 'activation': 'ReLU', 'skip_stochastic': True, 'padded_shape': None}
  }
  (stages): ModuleList(
    (0): VaeStage(
      (q_deterministic): DeterministicModules(
        (layers): ModuleList(
          (0): ResBlockConv2d(
            (conv1): TransposeableNormedSameConv2d(
              (conv): Conv2d(4, 64, kernel_size=(5, 5), stride=(1, 1), padding=(2, 2))
            )
            (activation_mid): ReLU()
            (conv2): TransposeableNormedSameConv2d(
              (conv): Conv2d(64, 64, kernel_size=(5, 5), stride=(1, 1), padding=(2, 2))
            )
            (residual_op): ResidualConnectionConv2d(False, None)
          )
          (1): ResBlockConv2d(
            (activation_pre): ReLU()
            (conv1): TransposeableNormedSameConv2d(
              (conv): Conv2d(64, 64, kernel_size=(5, 5), stride=(1, 1), padding=(2, 2))
            )
            (activation_mid): ReLU()
            (conv2): TransposeableNormedSameConv2d(
              (conv): Conv2d(64, 64, kernel_size=(5, 5), stride=(1, 1), padding=(2, 2))
            )
            (residual_op): ResidualConnectionConv2d(True, None)
          )
          (2): ResBlockConv2d(
            (activation_pre): ReLU()
            (conv1): TransposeableNormedSameConv2d(
              (conv): Conv2d(64, 64, kernel_size=(5, 5), stride=(1, 1), padding=(2, 2))
            )
            (activation_mid): ReLU()
            (conv2): TransposeableNormedSameConv2d(
              (conv): Conv2d(64, 64, kernel_size=(5, 5), stride=(2, 2), padding=(1, 1))
            )
            (residual_op): ResidualConnectionConv2d(True, None)
          )
        )
      )
      (stochastic): GaussianConv2d(
        (activation): ReLU()
        (std_activation): Softplus(beta=0.6931471805599453, threshold=20)
        (std_activation_inverse): InverseSoftplus()
        (in_transform_q): NormedSameConv2d(
          (conv): Conv2d(64, 64, kernel_size=(3, 3), stride=(1, 1), padding=(1, 1))
        )
        (in_transform_p): NormedSameConv2d(
          (conv): Conv2d(64, 64, kernel_size=(3, 3), stride=(1, 1), padding=(1, 1))
        )
      )
      (q_projection): AsFeatureMap()
      (p_projection): AsFeatureMap()
      (p_deterministic): DeterministicModules(
        (layers): ModuleList(
          (0): ResBlockConv2d(
            (conv1): TransposeableNormedSameConv2d(
              (conv): Conv2d(32, 64, kernel_size=(5, 5), stride=(1, 1), padding=(2, 2))
            )
            (activation_aux): ReLU()
            (activation_mid): ReLU()
            (conv2): TransposeableNormedSameConv2d(
              (conv): ConvTranspose2d(64, 64, kernel_size=(5, 5), stride=(2, 2))
            )
            (residual_op): ResidualConnectionConv2d(False, None)
          )
          (1): ResBlockConv2d(
            (activation_pre): ReLU()
            (conv1): TransposeableNormedSameConv2d(
              (conv): Conv2d(64, 64, kernel_size=(5, 5), stride=(1, 1), padding=(2, 2))
            )
            (activation_aux): ReLU()
            (aux_op): TransposeableNormedSameConv2d(
              (conv): ConvTranspose2d(64, 64, kernel_size=(5, 5), stride=(2, 2))
            )
            (activation_mid): ReLU()
            (conv2): TransposeableNormedSameConv2d(
              (conv): Conv2d(64, 64, kernel_size=(5, 5), stride=(1, 1), padding=(2, 2))
            )
            (residual_op): ResidualConnectionConv2d(True, None)
          )
          (2): ResBlockConv2d(
            (activation_pre): ReLU()
            (conv1): TransposeableNormedSameConv2d(
              (conv): Conv2d(64, 64, kernel_size=(5, 5), stride=(1, 1), padding=(2, 2))
            )
            (activation_aux): ReLU()
            (aux_op): TransposeableNormedSameConv2d(
              (conv): ConvTranspose2d(64, 64, kernel_size=(5, 5), stride=(2, 2))
            )
            (activation_mid): ReLU()
            (conv2): TransposeableNormedSameConv2d(
              (conv): Conv2d(64, 64, kernel_size=(5, 5), stride=(1, 1), padding=(2, 2))
            )
            (residual_op): ResidualConnectionConv2d(True, None)
          )
        )
      )
    )
    (1): VaeStage(
      (q_deterministic): DeterministicModules(
        (layers): ModuleList(
          (0): ResBlockConv2d(
            (activation_pre): ReLU()
            (conv1): TransposeableNormedSameConv2d(
              (conv): Conv2d(32, 64, kernel_size=(3, 3), stride=(1, 1), padding=(1, 1))
            )
            (activation_aux): ReLU()
            (activation_mid): ReLU()
            (conv2): TransposeableNormedSameConv2d(
              (conv): Conv2d(64, 64, kernel_size=(3, 3), stride=(1, 1), padding=(1, 1))
            )
            (residual_op): ResidualConnectionConv2d(True, [0, 0, 0, 0, 0, 32])
          )
          (1): ResBlockConv2d(
            (activation_pre): ReLU()
            (conv1): TransposeableNormedSameConv2d(
              (conv): Conv2d(64, 64, kernel_size=(3, 3), stride=(1, 1), padding=(1, 1))
            )
            (activation_aux): ReLU()
            (activation_mid): ReLU()
            (conv2): TransposeableNormedSameConv2d(
              (conv): Conv2d(64, 64, kernel_size=(3, 3), stride=(1, 1), padding=(1, 1))
            )
            (residual_op): ResidualConnectionConv2d(True, None)
          )
          (2): ResBlockConv2d(
            (activation_pre): ReLU()
            (conv1): TransposeableNormedSameConv2d(
              (conv): Conv2d(64, 64, kernel_size=(3, 3), stride=(1, 1), padding=(1, 1))
            )
            (activation_aux): ReLU()
            (activation_mid): ReLU()
            (conv2): TransposeableNormedSameConv2d(
              (conv): Conv2d(64, 64, kernel_size=(3, 3), stride=(2, 2))
            )
            (residual_op): ResidualConnectionConv2d(True, None)
          )
        )
      )
      (stochastic): GaussianConv2d(
        (activation): ReLU()
        (std_activation): Softplus(beta=0.6931471805599453, threshold=20)
        (std_activation_inverse): InverseSoftplus()
        (in_transform_q): NormedSameConv2d(
          (conv): Conv2d(64, 32, kernel_size=(3, 3), stride=(1, 1), padding=(1, 1))
        )
        (in_transform_p): NormedSameConv2d(
          (conv): Conv2d(64, 32, kernel_size=(3, 3), stride=(1, 1), padding=(1, 1))
        )
      )
      (q_projection): AsFeatureMap()
      (p_projection): AsFeatureMap()
      (p_deterministic): DeterministicModules(
        (layers): ModuleList(
          (0): ResBlockConv2d(
            (conv1): TransposeableNormedSameConv2d(
              (conv): Conv2d(16, 64, kernel_size=(3, 3), stride=(1, 1), padding=(1, 1))
            )
            (activation_aux): ReLU()
            (activation_mid): ReLU()
            (conv2): TransposeableNormedSameConv2d(
              (conv): ConvTranspose2d(64, 64, kernel_size=(3, 3), stride=(2, 2))
            )
            (residual_op): ResidualConnectionConv2d(False, None)
          )
          (1): ResBlockConv2d(
            (activation_pre): ReLU()
            (conv1): TransposeableNormedSameConv2d(
              (conv): Conv2d(64, 64, kernel_size=(3, 3), stride=(1, 1), padding=(1, 1))
            )
            (activation_aux): ReLU()
            (aux_op): TransposeableNormedSameConv2d(
              (conv): ConvTranspose2d(64, 64, kernel_size=(3, 3), stride=(2, 2))
            )
            (activation_mid): ReLU()
            (conv2): TransposeableNormedSameConv2d(
              (conv): Conv2d(64, 64, kernel_size=(3, 3), stride=(1, 1), padding=(1, 1))
            )
            (residual_op): ResidualConnectionConv2d(True, None)
          )
          (2): ResBlockConv2d(
            (activation_pre): ReLU()
            (conv1): TransposeableNormedSameConv2d(
              (conv): Conv2d(64, 64, kernel_size=(3, 3), stride=(1, 1), padding=(1, 1))
            )
            (activation_aux): ReLU()
            (aux_op): TransposeableNormedSameConv2d(
              (conv): ConvTranspose2d(64, 64, kernel_size=(3, 3), stride=(2, 2))
            )
            (activation_mid): ReLU()
            (conv2): TransposeableNormedSameConv2d(
              (conv): Conv2d(64, 64, kernel_size=(3, 3), stride=(1, 1), padding=(1, 1))
            )
            (residual_op): ResidualConnectionConv2d(True, None)
          )
        )
      )
    )
    (2): VaeStage(
      (q_deterministic): DeterministicModules(
        (layers): ModuleList(
          (0): ResBlockConv2d(
            (activation_pre): ReLU()
            (conv1): TransposeableNormedSameConv2d(
              (conv): Conv2d(16, 64, kernel_size=(3, 3), stride=(1, 1), padding=(1, 1))
            )
            (activation_aux): ReLU()
            (activation_mid): ReLU()
            (conv2): TransposeableNormedSameConv2d(
              (conv): Conv2d(64, 64, kernel_size=(3, 3), stride=(1, 1), padding=(1, 1))
            )
            (residual_op): ResidualConnectionConv2d(True, [0, 0, 0, 0, 0, 48])
          )
          (1): ResBlockConv2d(
            (activation_pre): ReLU()
            (conv1): TransposeableNormedSameConv2d(
              (conv): Conv2d(64, 64, kernel_size=(3, 3), stride=(1, 1), padding=(1, 1))
            )
            (activation_aux): ReLU()
            (activation_mid): ReLU()
            (conv2): TransposeableNormedSameConv2d(
              (conv): Conv2d(64, 64, kernel_size=(3, 3), stride=(1, 1), padding=(1, 1))
            )
            (residual_op): ResidualConnectionConv2d(True, None)
          )
          (2): ResBlockConv2d(
            (activation_pre): ReLU()
            (conv1): TransposeableNormedSameConv2d(
              (conv): Conv2d(64, 64, kernel_size=(3, 3), stride=(1, 1), padding=(1, 1))
            )
            (activation_aux): ReLU()
            (activation_mid): ReLU()
            (conv2): TransposeableNormedSameConv2d(
              (conv): Conv2d(64, 64, kernel_size=(3, 3), stride=(2, 2))
            )
            (residual_op): ResidualConnectionConv2d(True, None)
          )
        )
      )
      (stochastic): GaussianConv2d(
        (activation): ReLU()
        (std_activation): Softplus(beta=0.6931471805599453, threshold=20)
        (std_activation_inverse): InverseSoftplus()
        (in_transform_q): NormedSameConv2d(
          (conv): Conv2d(64, 16, kernel_size=(3, 3), stride=(1, 1), padding=(1, 1))
        )
        (in_transform_p): NormedSameConv2d(
          (conv): Conv2d(64, 16, kernel_size=(3, 3), stride=(1, 1), padding=(1, 1))
        )
      )
      (q_projection): AsFeatureMap()
      (p_projection): AsFeatureMap()
      (p_deterministic): DeterministicModules(
        (layers): ModuleList(
          (0): ResBlockConv2d(
            (conv1): TransposeableNormedSameConv2d(
              (conv): Conv2d(8, 64, kernel_size=(3, 3), stride=(1, 1), padding=(1, 1))
            )
            (activation_aux): ReLU()
            (activation_mid): ReLU()
            (conv2): TransposeableNormedSameConv2d(
              (conv): ConvTranspose2d(64, 64, kernel_size=(3, 3), stride=(2, 2))
            )
            (residual_op): ResidualConnectionConv2d(False, None)
          )
          (1): ResBlockConv2d(
            (activation_pre): ReLU()
            (conv1): TransposeableNormedSameConv2d(
              (conv): Conv2d(64, 64, kernel_size=(3, 3), stride=(1, 1), padding=(1, 1))
            )
            (activation_aux): ReLU()
            (aux_op): TransposeableNormedSameConv2d(
              (conv): ConvTranspose2d(64, 64, kernel_size=(3, 3), stride=(2, 2))
            )
            (activation_mid): ReLU()
            (conv2): TransposeableNormedSameConv2d(
              (conv): Conv2d(64, 64, kernel_size=(3, 3), stride=(1, 1), padding=(1, 1))
            )
            (residual_op): ResidualConnectionConv2d(True, None)
          )
          (2): ResBlockConv2d(
            (activation_pre): ReLU()
            (conv1): TransposeableNormedSameConv2d(
              (conv): Conv2d(64, 64, kernel_size=(3, 3), stride=(1, 1), padding=(1, 1))
            )
            (activation_aux): ReLU()
            (aux_op): TransposeableNormedSameConv2d(
              (conv): ConvTranspose2d(64, 64, kernel_size=(3, 3), stride=(2, 2))
            )
            (activation_mid): ReLU()
            (conv2): TransposeableNormedSameConv2d(
              (conv): Conv2d(64, 64, kernel_size=(3, 3), stride=(1, 1), padding=(1, 1))
            )
            (residual_op): ResidualConnectionConv2d(True, None)
          )
        )
      )
    )
    (3): VaeStage(
      (q_deterministic): DeterministicModules(
        (layers): ModuleList(
          (0): ResBlockConv2d(
            (activation_pre): ReLU()
            (conv1): TransposeableNormedSameConv2d(
              (conv): Conv2d(8, 64, kernel_size=(3, 3), stride=(1, 1), padding=(1, 1))
            )
            (activation_aux): ReLU()
            (activation_mid): ReLU()
            (conv2): TransposeableNormedSameConv2d(
              (conv): Conv2d(64, 64, kernel_size=(3, 3), stride=(1, 1), padding=(1, 1))
            )
            (residual_op): ResidualConnectionConv2d(True, [0, 0, 0, 0, 0, 56])
          )
          (1): ResBlockConv2d(
            (activation_pre): ReLU()
            (conv1): TransposeableNormedSameConv2d(
              (conv): Conv2d(64, 64, kernel_size=(3, 3), stride=(1, 1), padding=(1, 1))
            )
            (activation_aux): ReLU()
            (activation_mid): ReLU()
            (conv2): TransposeableNormedSameConv2d(
              (conv): Conv2d(64, 64, kernel_size=(3, 3), stride=(1, 1), padding=(1, 1))
            )
            (residual_op): ResidualConnectionConv2d(True, None)
          )
          (2): ResBlockConv2d(
            (activation_pre): ReLU()
            (conv1): TransposeableNormedSameConv2d(
              (conv): Conv2d(64, 64, kernel_size=(3, 3), stride=(1, 1), padding=(1, 1))
            )
            (activation_aux): ReLU()
            (activation_mid): ReLU()
            (conv2): TransposeableNormedSameConv2d(
              (conv): Conv2d(64, 64, kernel_size=(3, 3), stride=(1, 1), padding=(1, 1))
            )
            (residual_op): ResidualConnectionConv2d(True, None)
          )
        )
      )
      (stochastic): GaussianDense(
        (activation): ReLU()
        (std_activation): Softplus(beta=0.6931471805599453, threshold=20)
        (std_activation_inverse): InverseSoftplus()
        (in_transform_q): NormedDense(
          (linear): Linear(in_features=25088, out_features=8, bias=True)
        )
      )
      (q_projection): AsFeatureMap(
        (transform): NormedDense(
          (linear): Linear(in_features=4, out_features=25088, bias=True)
        )
      )
      (p_projection): AsFeatureMap(
        (transform): NormedDense(
          (linear): Linear(in_features=4, out_features=25088, bias=True)
        )
      )
      (p_deterministic): DeterministicModules(
        (layers): ModuleList(
          (0): ResBlockConv2d(
            (conv1): TransposeableNormedSameConv2d(
              (conv): Conv2d(64, 64, kernel_size=(3, 3), stride=(1, 1), padding=(1, 1))
            )
            (activation_mid): ReLU()
            (conv2): TransposeableNormedSameConv2d(
              (conv): Conv2d(64, 64, kernel_size=(3, 3), stride=(1, 1), padding=(1, 1))
            )
            (residual_op): ResidualConnectionConv2d(False, None)
          )
          (1): ResBlockConv2d(
            (activation_pre): ReLU()
            (conv1): TransposeableNormedSameConv2d(
              (conv): Conv2d(64, 64, kernel_size=(3, 3), stride=(1, 1), padding=(1, 1))
            )
            (activation_mid): ReLU()
            (conv2): TransposeableNormedSameConv2d(
              (conv): Conv2d(64, 64, kernel_size=(3, 3), stride=(1, 1), padding=(1, 1))
            )
            (residual_op): ResidualConnectionConv2d(True, None)
          )
          (2): ResBlockConv2d(
            (activation_pre): ReLU()
            (conv1): TransposeableNormedSameConv2d(
              (conv): Conv2d(64, 64, kernel_size=(3, 3), stride=(1, 1), padding=(1, 1))
            )
            (activation_mid): ReLU()
            (conv2): TransposeableNormedSameConv2d(
              (conv): Conv2d(64, 64, kernel_size=(3, 3), stride=(1, 1), padding=(1, 1))
            )
            (residual_op): ResidualConnectionConv2d(True, None)
          )
        )
      )
    )
  )
  (likelihood): GrayscaleContinuousLogisticMixLikelihoodConv2d(
    (activation): ReLU()
    (parameter_net): NormedSameConv2d(
      (conv): Conv2d(64, 90, kernel_size=(1, 1), stride=(1, 1))
    )
  )
)
Running training...
Epoch 1   
Train
          elbo            | log p(x) -1.78E+09
          likelihoods     | loss -1.78E+09 | log p(x) -1.78E+09 | total log p(x|z_i) -1.45E+05
          divergences     | KL z1 6.03E+08 | KL z2 1.17E+09 | KL z3 1.42E+07 | KL z4 3.54E+01 | KL(q(z|x), p(z)) 1.78E+09
          hyperparameters | free_nats 0.00E+00 | beta 1.00E+00 | learning_rate 3.00E-04
…
